Training/model/keypoint_classifier/keypoint_classifier.tflite (tflite, 6588 bytes, 6 tensors)

sequential/dense/BiasAdd/ReadVariableOp f4 [20]
-0.27315256 -0.11486175 0.06914432 -0.03696852 -0.21028608 -0.013845853 -0.24325146 -0.061696887
-0.40022844 -0.20825091 -0.0127058625 -0.14915861 0.12953486 0.086813286 -0.044770777 -0.45715648
-0.10911794 -0.3655784 0.21612145 0.3339339
00000000: a7da 8bbe a33c ebbd 8a9b 8d3d 4e6c 17bd
00000010: 3c55 57be b7d9 62bc e916 79be e0b5 7cbd
00000020: beea ccbe ba3f 55be 402c 50bc 09bd 18be
00000030: c9a4 043e 2acb b13d 9061 37bd 6a10 eabe
00000040: 3a79 dfbd 182d bbbe f14e 5d3e 62f9 aa3e

sequential/dense_2/BiasAdd/ReadVariableOp f4 [5]
-0.3513006 -0.15744254 0.42601466 -0.14412671 0.114238344
00000000: acdd b3be 9e38 21be 981e da3e f495 13be
00000010: cbf5 e93d

sequential/dense_1/BiasAdd/ReadVariableOp f4 [10]
-0.064761706 0.17057784 0.7090955 0.19180864 0.27046937 0.15139519 -0.16374165 -0.26165935
0.41657895 -0.13083144
00000000: c9a1 84bd f5ab 2e3e 4887 353f 7c69 443e
00000010: f67a 8a3e 5707 1b3e e4ab 27be 37f8 85be
00000020: d649 d53e adf8 05be

sequential/dense/MatMul f4 [20, 42]
0.10896921 -0.08081533 0.15944903 -0.37810236 0.18029684 -0.105879426 0.55163765 -0.054117683
0.19005097 -0.24621254 -0.21626936 0.041265946 -0.0013187703 0.042261567 -0.108624026 0.29613623
-0.048525874 0.18464422 -0.47594845 0.0044553867 -0.332793 0.11295154 0.004453295 -0.081561826
0.06946916 0.1785881 -0.5631917 0.18560934 -0.4790352 0.24292037 -0.53644913 0.31041083
-0.0472286 0.2212945 -0.54597235 0.07901484 -0.49893454 0.06409117 -0.41405657 0.19223449
-0.573289 0.040574882 -0.09980649 -0.13744266 0.5689181 -0.21016441 0.3903921 -0.104684204
0.6285984 -0.28125814 0.095193624 0.17381613 0.75632405 -0.22376683 0.19989477 -0.11051609
0.28327402 -0.03307983 0.30854708 0.009667021 0.94004476 -0.0021271256 0.30729324 -0.08641883
0.75184053 0.21456866 0.7609023 0.2835997 0.34923598 -0.28314024 0.12415642 -0.059370577
0.40545967 0.099263415 0.39132175 0.24184723 -0.3149129 0.15145455 -0.043028586 0.15152726
0.25740504 0.16769528 0.24889846 0.05750379 -0.19870672 -0.28259462 -0.23113917 0.49993378
-0.0011207091 0.20434284 -0.30593637 -0.24694154 -0.37378824 -0.3226035 -0.14646313 0.028988909
-0.2526624 -0.17651406 0.013959969 -0.10486328 0.1373809 0.14196445 -0.50728244 -0.29806188
-0.044421885 -0.07696641 -0.09426191 0.32522053 -0.35829735 0.23287469 0.08862493 0.0020977175
0.23963109 0.042744502 -0.11185115 0.2740161 -0.43402785 0.2913869 0.19477998 -0.25165394
0.2556364 0.16846469 0.12002514 0.3274426 -0.16280477 0.26349938 -0.27063784 -0.25940722
-0.40945992 -0.06314715 -0.25053352 -0.030053796 -0.43735084 0.028839359 -0.234347 -0.17369048
0.10643114 -0.014291791 0.21096322 0.04851184 0.47599614 0.17043558 0.36950052 0.35328713
0.36652425 0.107411064 0.8418403 -0.015642382 0.7020202 0.15719199 0.6544314 0.3908378
0.42387512 -0.010783488 0.32185882 0.008989255 0.43954712 0.24243896 0.42078662 0.1410081
0.22432001 -0.06729255 0.5164619 0.06272532 0.34148967 -0.31728417 0.49464354 -0.26688814
0.22650063 -0.045689613 0.16202866 0.28581095 0.047351707 0.1742011 -0.16546679 0.33044642
0.09256641 0.19469559 0.19305627 -0.050768327 -0.09404489 0.13131663 -0.08334928 0.08222944
-0.13485472 0.12521861 0.20006397 0.13211416 -0.10131302 -0.18418294 -0.07815639 -0.28876764
-0.16003202 -0.4777933 0.42022687 -0.03712124 0.11395527 0.072470605 -0.20280266 -0.19056584
0.36014462 -0.53142303 -0.07233824 0.25808576 0.19368254 0.013655211 -0.1627132 -0.084024824
0.18752465 -0.36147785 -0.2739267 -0.03998384 -0.16878442 0.3118456 0.07125487 -0.10948053
0.14755271 0.15993413 -0.012156202 0.11112129 0.2678354 -0.0190123 -0.2183616 0.107719526
-0.22262812 0.11406367 0.16611524 0.069619276 -0.28367257 0.26786792 0.31527933 -0.23790695
0.174143 -0.09680965 0.09183205 -0.26217076 -0.0009075836 -0.22793944 0.22209531 -0.04471254
0.078235984 0.2237629 0.028692218 -0.0038526414 0.06000772 0.33598095 -0.19421 0.22490743
0.0420103 0.18058513 -0.07957462 0.24737312 0.18564045 0.21477401 -0.21982342 0.87852013
00000000: 402b df3d 8282 a5bd 9b46 233e a296 c1be
00000010: bc9f 383e 50d7 d8bd 2038 0d3f 81aa 5dbd
00000020: b99c 423e 241f 7cbe b775 5dbe 7b06 293d
00000030: 97da acba 771a 2d3d 4676 debd 2b9f 973e
00000040: 11c3 46bd 6013 3d3e 84af f3be 7efe 913b
00000050: d863 aabe 2353 e73d f2ec 913b e309 a7bd
00000060: d945 8e3d cddf 363e 552d 10bf 6010 3e3e
00000070: 1a44 f5be 1ec0 783e bb54 09bf 2bee 9e3e
00000080: c772 41bd 079b 623e d8c4 0bbf 88d2 a13d
00000090: 5974 ffbe 3b42 833d 39ff d3be 1ed9 443e
000000a0: 11c3 12bf d931 263d 5867 ccbd c5bd 0cbe
000000b0: 9ea4 113f 5735 57be 79e1 c73e ac64 d6bd
000000c0: d3eb 203f 1101 90be e0f4 c23d dbfc 313e
000000d0: 749e 413f 2223 65be 37b1 4c3e 4356 e2bd
000000e0: 4b09 913e b77e 07bd e2f9 9d3e 6d62 1e3c
000000f0: c6a6 703f 3f67 0bbb 8a55 9d3e 5bfc b0bd
00000100: 9f78 403f e3b7 5b3e 7eca 423f fb33 913e
00000110: 0fcf b23e c2f7 90be b945 fe3d 902e 73bd
00000120: 6998 cf3e 9e4a cb3d 535b c83e cda6 773e
00000130: 433c a1be e716 1b3e be3e 30bd f629 1b3e
00000140: 98ca 833e 50b8 2b3e 3ddf 7e3e 1889 6b3d
00000150: c679 4bbe 3eb0 90be bfaf 6cbe 52f7 ff3e
00000160: c2e4 92ba 403f 513e b1a3 9cbe 3ede 7cbe
00000170: 2c61 bfbe 492c a5be 6efa 15be 267a ed3c
00000180: f75c 81be 1ac0 34be 5bb8 643c 8fc2 d6bd
00000190: 94ad 0c3e 215f 113e 43dd 01bf 919b 98be
000001a0: b9f3 35bd 91a0 9dbd 630c c1bd 4e83 a63e
000001b0: c072 b7be b476 6e3e fd80 b53d dc79 093b
000001c0: da61 753e dc14 2f3d 3712 e5bd d74b 8c3e
000001d0: e638 debe aa30 953e 6774 473e c9d8 80be
000001e0: c6e2 823e 0282 2c3e becf f53d 8ea6 a73e
000001f0: 4bb6 26be 64e9 863e 0b91 8abe 06d1 84be
00000200: bba4 d1be 4b53 81bd ee45 80be 6133 f6bc
00000210: 73ec dfbe 8540 ec3c a9f8 6fbe ebdb 31be
00000220: 92f8 d93d 1e28 6abc be06 583e 5ab4 463d
00000230: c4b5 f33e aa86 2e3e 2c2f bd3e 0de2 b43e
00000240: 11a9 bb3e 55fa db3d d982 573f 7424 80bc
00000250: 99b7 333f f0f6 203e d188 273f e41b c83e
00000260: 2906 d93e 3aad 30bc aeca a43e ab47 133c
00000270: 520c e13e eb41 783e 5871 d73e 6d64 103e
00000280: 25b4 653e add0 89bd d936 043f 2276 803d
00000290: bcd7 ae3e 1273 a2be eb41 fd3e 90a5 88be
000002a0: c8ef 673e 0825 3bbd d7ea 253e d055 923e
000002b0: ddf3 413d c661 323e 2070 29be 4630 a93e
000002c0: 7593 bd3d 485e 473e 8bb0 453e 73f2 4fbd
000002d0: 9b9a c0bd de77 063e 07b3 aabd e967 a83d
000002e0: 5b17 0abe 4f39 003e 92dd 4c3e ef48 073e
000002f0: 337d cfbd 749a 3cbe 7510 a0bd 5ad9 93be
00000300: 6fdf 23be 53a1 f4be fa27 d73e 710c 18bd
00000310: 6161 e93d 786b 943d 80ab 4fbe b123 43be
00000320: e064 b83e 570b 08bf 1226 94bd d123 843e
00000330: b754 463e 1bba 5f3c 4a9e 26be 3515 acbd
00000340: 7606 403e a013 b9be 1f40 8cbe 18c6 23bd
00000350: d3d5 2cbe 3aaa 9f3e 13ee 913d 5437 e0bd
00000360: 0f18 173e c6c5 233e cf2a 47bc 8f93 e33d
00000370: b921 893e afbf 9bbc 2f9a 5fbe 0e9c dc3d
00000380: a0f8 63be 379a e93d 1d1a 2a3e 8d94 8e3d
00000390: 883d 91be fc25 893e 4b6c a13e e19d 73be
000003a0: 8b52 323e 2344 c6bd 7112 bc3d 3f3b 86be
000003b0: e8ea 6dba f568 69be f46c 633e 7f24 37bd
000003c0: 303a a03d 1a22 653e f10b eb3c 997c 7cbb
000003d0: a8ca 753d b205 ac3e fcde 46be 224e 663e
000003e0: fe12 2c3d 4feb 383e 05f8 a2bd 614f 7d3e
000003f0: 8818 3e3e b8ed 5b3e 6419 61be b2e6 603f

sequential/dense_1/MatMul f4 [10, 20]
0.53104496 0.5592403 0.036540754 0.6978728 -0.14912605 -0.28071427 0.33569616 -0.07624342
0.3414085 0.58758014 0.6025891 0.06032618 0.14532049 0.06674249 0.21753637 0.23701103
-0.14430332 0.46555164 -0.121480234 -0.24130283 0.27935335 0.18623349 -0.03732376 0.33684728
-0.3051156 0.32509223 0.11275532 0.31159872 -0.10952711 -0.19934954 -0.32612655 0.33806813
-0.089794844 -0.2515304 0.034695815 0.028173586 -0.14128229 -0.4017023 -0.2912454 0.24099326
-0.24714912 0.062502965 0.077816695 -0.27090785 -0.44209895 0.042428657 0.272276 0.106824495
-0.28995672 -0.009650522 0.23876804 -0.06577293 -0.020549828 0.34719837 0.35126042 -0.42694667
-0.24029672 0.08389768 0.77273846 0.43147406 0.7063781 -0.22110175 0.090853535 0.94499594
0.42338976 -0.35770637 -0.07044298 -0.06878405 0.7980167 0.5209752 -0.6255122 1.0116054
0.42396665 -0.5035081 -0.40842217 -0.012736222 0.39086705 -0.417674 -0.107741036 0.15269372
-0.077847354 -0.4800444 -0.36870727 0.11078773 0.5181101 0.38067177 0.091993384 0.017423688
-0.15468243 0.25605202 0.23944262 -0.13630897 -0.14171627 0.07828835 -0.06307536 -0.022426108
0.59693575 -0.40250653 0.3478742 -0.3768065 -0.1576569 0.07104322 -0.53316206 -0.4632424
0.5671177 -0.18682973 0.41927645 0.23701257 0.05019576 0.37429318 -0.1945873 0.4969379
-0.040381227 -0.077709965 -0.0056190807 0.25714487 0.47042283 -0.3092642 0.61421585 -0.44284537
-0.20277874 -0.30064288 0.20860904 -0.18113615 0.5973895 -0.17261776 0.646716 0.20158061
0.10063708 0.5254182 0.6099166 -0.28567022 -0.29918274 -0.06069788 -0.3432337 0.5955968
-0.082288675 0.4416157 0.1821257 -0.44900316 -0.501678 0.40981144 0.31925112 -0.6531576
0.14986332 0.41445106 0.3661879 0.54358697 0.48648158 -0.104848735 0.12344329 -0.0013152794
0.16169758 0.46172357 0.22279914 0.6102481 -0.08583803 0.5198495 -0.25612524 -0.45975062
-0.39208493 0.66503936 0.85337114 -0.5355693 -0.104003005 -0.10480031 0.14259799 0.4809256
-0.12977222 -0.08444474 0.6894225 -0.6287367 0.6630711 0.46990862 -0.15854698 0.3389015
-0.64529526 0.17203915 0.2893027 0.14807254 -0.081392124 -0.09899591 0.040995825 0.18690214
-0.36797708 0.42606407 -0.34304652 -0.25472707 -0.39272693 -0.16372806 -0.024131961 0.13569583
-0.3188528 -0.27879667 0.086054556 -0.11240881 -0.37766546 -0.22867106 -0.26285338 0.07271654
00000000: 90f2 073f 5f2a 0f3f c2ab 153d cba7 323f
00000010: 80b4 18be c8b9 8fbe 5ee0 ab3e 8325 9cbd
00000020: 18cd ae3e a76b 163f 4743 1a3f 9618 773d
00000030: e5ce 143e 49b0 883d dbc1 5e3e 05b3 723e
00000040: 40c4 13be c95c ee3e a1ca f8bd 1718 77be
00000050: 6707 8f3e feb3 3e3e cde0 18bd 3f77 ac3e
00000060: 1d38 9cbe 7d72 a63e 43ec e63d de89 9f3e
00000070: c04f e0bd 4922 4cbe 0ffa a6be 4417 ad3e
00000080: 5ce6 b7bd 98c8 80be 331d 0e3d 4bcc e63c
00000090: 4eac 10be edab cdbe 1e1e 95be f0c6 763e
000000a0: a914 7dbe 8e01 803d 5c5e 9f3d 6fb4 8abe
000000b0: cb5a e2be acc9 2d3d c367 8b3e cdc6 da3d
000000c0: 3575 94be 391d 1ebc 9c7f 743e f5b3 86bd
000000d0: 1d58 a8bc fcc3 b13e 68d8 b33e c198 dabe
000000e0: 5810 76be 8cd2 ab3d 30d2 453f 2bea dc3e
000000f0: 32d5 343f 7f68 62be 6b11 ba3d 41eb 713f
00000100: 8bc6 d83e 4a25 b7be 6944 90bd a7de 8cbd
00000110: d34a 4c3f a15e 053f 9121 20bf 497c 813f
00000120: 2812 d93e e8e5 00bf b61c d1be 96ab 50bc
00000130: ba1f c83e 5ed9 d5be 55a7 dcbd be5b 1c3e
00000140: 6f6e 9fbd 61c8 f5be 33c7 bcbe ade4 e23d
00000150: dda2 043f 69e7 c23e 0767 bc3d 1fbc 8e3c
00000160: 1265 1ebe 4019 833e 7230 753e 9494 0bbe
00000170: 121e 11be a455 a03d a82d 81bd f5b6 b7bc
00000180: c8d0 183f 5615 cebe 911c b23e c8ec c0be
00000190: cf70 21be 1c7f 913d 4f7d 08bf 1c2e edbe
000001a0: a02e 113f 4b50 3fbe 67ab d63e 6cb3 723e
000001b0: 129a 4d3d 5ba3 bf3e e541 47be a56e fe3e
000001c0: c966 25bd 6726 9fbd 4420 b8bb 7ea8 833e
000001d0: 43db f03e e157 9ebe 403d 1d3f a1bc e2be
000001e0: 3ba5 4fbe dded 99be 9c9d 553e c17b 39be
000001f0: 85ee 183f b6c2 30be 2e8f 253f 266b 4e3e
00000200: d01a ce3d cf81 063f 7f23 1c3f 5e43 92be
00000210: 7b2e 99be 579e 78bd 54bc afbe 0879 183f
00000220: f786 a8bd 741b e23e 297f 3a3e bee3 e5be
00000230: f86d 00bf ced2 d13e e274 a33e 5635 27bf
00000240: c575 193e ee32 d43e fb7c bb3e 8428 0b3f
00000250: 1d14 f93e efba d6bd d6cf fc3d 7465 acba
00000260: 0d94 253e 0867 ec3e 7525 643e 3839 1c3f
00000270: d9cb afbd db14 053f d922 83be 6f64 ebbe
00000280: 5bbf c8be 0540 2a3f 8876 5a3f 121b 09bf
00000290: 87ff d4bd 8ca1 d6bd 3505 123e e13b f63e
000002a0: 02e3 04be 5df1 acbd fe7d 303f e3f4 20bf
000002b0: 07bf 293f dd97 f03e 245a 22be 7f84 ad3e
000002c0: 1232 25bf 082b 303e 7c1f 943e 54a0 173e
000002d0: eab0 a6bd 5ebe cabd 3deb 273d 4663 3f3e
000002e0: 7e67 bcbe 1225 da3e cba3 afbe 966b 82be
000002f0: 8113 c9be 54a8 27be 64b0 c5bc d9f3 0a3e
00000300: ad40 a3be 70be 8ebe 5f3d b03d 9736 e6bd
00000310: 5e5d c1be bf28 6abe b894 86be 69ec 943d

sequential/dense_2/MatMul f4 [5, 10]
0.57354397 -0.12160755 -0.7960695 0.17580916 -0.93215513 -0.33349255 0.16592838 1.0553818
0.42850548 -0.7095243 0.4045385 -0.18678515 -0.46653765 -0.3870005 0.86688435 0.7395933
0.5631125 -0.57154256 -0.53253865 -0.54584354 0.14626119 0.4467623 0.659235 -0.46902314
-0.70839655 -0.69767606 -0.8623558 -0.60953164 0.75386983 -0.6215832 0.7155791 0.42938
-1.2670997 1.1423457 -0.36555883 -0.62781435 -0.2723607 -0.35182324 -0.19312662 -0.2307481
-0.9602449 0.101996474 0.04336386 0.6860401 0.009119288 0.51856685 -0.98229843 0.08227788
-0.2950075 0.17611204
00000000: c7d3 123f 610d f9bd 36cb 4bbf 5107 343e
00000010: b8a1 6ebf 89bf aabe 21e9 293e c016 873f
00000020: 1265 db3e 62a3 35bf ac1f cf3e 9b44 3fbe
00000030: 06de eebe ee24 c6be 22ec 5d3f fd55 3d3f
00000040: 2428 103f 9d50 12bf 7454 08bf 67bc 0bbf
00000050: 7ec5 153e 07be e43e a0c3 283f cd23 f0be
00000060: 7a59 35bf e69a 32bf 5ac3 5cbf 440a 1cbf
00000070: 9dfd 403f 1420 1fbf 3130 373f b2d7 db3e
00000080: 5330 a2bf 6238 923f 872a bbbe 71b8 20bf
00000090: dd72 8bbe 2d22 b4be fcc2 45be 3b49 6cbe
000000a0: 9cd2 75bf 87e3 d03d 4e9e 313d 53a0 2f3f
000000b0: 1169 153c ccc0 043f e977 7bbf 4e81 a83d
000000c0: 390b 97be b756 343e
